checkpoint/ckpt.pth (torch_old, 550252 bytes, 32 tensors)

model.0.0.weight f4 [16, 3, 3, 3]
000000 37 f4 8b be 03 34 30 be 25 01 10 bd b3 f3 d4 bd
       -0.2733476 -0.17207341 -0.03515734 -0.103980444
000010 5f bd 86 bd 69 4c 36 3d 0d e0 75 bd 3f f4 43 3d
       -0.065790884 0.044506464 -0.060028125 0.047840353
000020 10 80 dc 3d 30 01 34 be d9 43 19 be 2b bd de 3c
       0.107666135 -0.17578578 -0.14967288 0.027189812
000030 c1 87 04 be 43 68 11 bd fa ce 9a 3d 99 77 08 3d
       -0.12942411 -0.035499822 0.07559009 0.033317182
000040 92 87 e5 3d ca ac e2 3d 65 10 6d be 36 0e 56 be
       0.112074986 0.11068113 -0.23150785 -0.20903859
000050 7a 05 26 be 72 d4 8e bd 7c 09 90 bc 71 8f 8c bc
       -0.16213027 -0.069741145 -0.017582648 -0.017158242
000060 65 19 7f 3d db 31 0a 3e 49 9a ca 3d 01 ad f7 bd
       0.062280077 0.13495581 0.09892709 -0.12093545
000070 ab 75 5c bf 5f ce a6 3e ad 66 af be ee cb 9a 3f
       -0.8611705 0.32579324 -0.34258023 1.2093484
000080 ac e4 e8 be 5e 6d cc be 84 a5 1f 3f ef e2 e0 bc
       -0.45486963 -0.3992719 0.6236193 -0.02745196
000090 fe 56 b0 3e d8 4e 20 bf 6c a3 c9 3d 81 8a 1f 3e
       0.3444137 -0.62620306 0.098456234 0.15580179
0000a0 42 93 b9 3f c6 9d 45 bf e7 10 c0 be 3f 4f ce 3e
       1.4498065 -0.7719387 -0.37512895 0.40294835
0000b0 26 f4 22 bf d9 e2 4c 3d cb a8 24 bf 28 1f a9 3e
       -0.6365379 0.050021026 -0.6432006 0.33031583
0000c0 9f 50 79 bd b2 67 9c 3f 14 63 05 bf 06 db f3 be
       -0.060867902 1.2219145 -0.52104306 -0.4762804
0000d0 b1 a1 ba 3e 03 08 83 be 62 96 9f bd 44 9e ba 3c
       0.36451486 -0.2559205 -0.07792355 0.022780545
0000e0 cf 1b 59 3e 8f 29 d4 3d 54 04 4a 3e 0c 1b 73 3e
       0.21202014 0.10359489 0.19728214 0.23740786
0000f0 18 9e 5f 3d ed bf e3 3a 93 48 65 bd 25 ec 48 bd
       0.05459413 0.0017375924 -0.055977415 -0.04905333
000100 ca ac 98 bc 4c 3b 1a 3e 56 5a 9c 3c cf 6d 1e 3e
       -0.01863708 0.15061682 0.019086044 0.15471576
000110 c4 60 7a 3e 85 33 d2 3d 57 7f 53 3d 52 f4 c9 bc
       0.24450976 0.10263733 0.051635113 -0.024652634
000120 b1 43 8f be 73 f3 f5 bd 96 f8 8c 3e d2 fe 3a be
       -0.27981332 -0.12009325 0.27533406 -0.18261269
000130 2d cb 47 bd 23 11 76 3e 38 41 55 be 77 db 56 bd
       -0.048777748 0.24029975 -0.2082566 -0.05245539
000140 f6 7d 99 bd d4 7b 4f be 64 c2 0c be 59 75 4f bd
       -0.07494728 -0.2026208 -0.13746029 -0.05064902
000150 4c 2b fe bd 27 c8 c3 3c bf 28 ac bd 10 01 6b bd
       -0.12410602 0.023899151 -0.08406209 -0.05737406
000160 60 f9 03 bd 2c 89 4f 3d aa 6f 30 be f9 d1 d7 bd
       -0.032220244 0.050667927 -0.17230096 -0.10538096
000170 9d 6f d0 bd ee ae c6 bd a3 60 ab 3d 2c 76 fd bc
       -0.101775385 -0.09701334 0.08368041 -0.030940138
000180 1d 99 85 3b 31 d5 12 3e b8 62 80 bc 75 0e c1 3c
       0.0040770904 0.14339139 -0.015672073 0.023566464
000190 17 52 3d 3e 02 85 d1 3c f3 5e 84 3e e4 78 f2 3e
       0.18488346 0.025576118 0.2585369 0.47357857
0001a0 72 3b 5f 3e 82 3d 27 3e aa 1a d0 3e 40 18 a5 3e
       0.2180002 0.16332057 0.40645343 0.32245064
0001b0 b2 8e db be 7d fd ff be e2 f5 67 3e 1f 46 40 bb
       -0.42882305 -0.49998084 0.2265239 -0.002933867
0001c0 5e 4b b5 be 1c c9 84 3d 7b 2c ec 3e 2b 17 6a 3e
       -0.35409063 0.06483671 0.46127686 0.228604
0001d0 3f 9a 65 3e fc 91 24 be 3f ad 94 be da 8e bc 3e
       0.22422121 -0.16071314 -0.29038426 0.36827737
0001e0 ca 17 38 3e 21 eb ac be 92 a2 01 3e 26 89 c4 3e
       0.17977825 -0.3377314 0.12659672 0.38385886
0001f0 b0 b8 05 3a ea c7 d5 bd fe 63 10 bd 60 17 20 be
       0.0005101068 -0.10438521 -0.03525161 -0.15633917
000200 5f 0c d3 3e 06 0d 2a 3e a1 11 c8 be 84 ca 7c 3d
       0.41220376 0.1660653 -0.3907595 0.06171657
000210 06 8a 51 3e e7 47 0d be c7 36 82 be 07 8e 95 3e
       0.20462808 -0.1379696 -0.25432417 0.2920992
000220 08 58 b9 3e c4 99 23 3e fc 91 ee 3e fc 09 11 3f
       0.36199975 0.15976626 0.46595752 0.5665586
000230 b1 6d 41 3e 5d c1 78 3e 5a e6 9a 3d f1 c9 45 be
       0.188895 0.24292512 0.07563467 -0.19315316
000240 96 0c c1 bd 05 58 e0 bc 50 ba 87 3c a5 90 98 be
       -0.09426229 -0.027385721 0.016568333 -0.29797855
000250 88 4e 90 be 73 b7 80 be 0a 52 0a be fe d3 bf be
       -0.28184915 -0.2513996 -0.13507858 -0.37466425
000260 e6 48 cc be e4 21 df 3d ca 94 4b 3e 29 0d ae 3e
       -0.39899367 0.10895136 0.19880977 0.33994415
000270 c8 d1 48 be 6b dd da bd 41 1f e8 bd 8e 53 86 bd
       -0.19611275 -0.106867634 -0.11334086 -0.065589055
000280 c3 34 19 be 83 df 2a be 97 81 d8 3d fb 19 94 bc
       -0.14961533 -0.16686825 0.10571592 -0.018078795
000290 1d 11 93 be 0b 6b 11 3e a6 e7 f3 3d 6d 2a 63 be
       -0.28723994 0.1420099 0.11909418 -0.22184153
0002a0 38 e3 b3 3d 94 a8 79 3e 05 c3 36 bd 2a bd 7e 3e
       0.08783573 0.24380714 -0.04461958 0.24876848
0002b0 a1 d9 b5 3d ad cb 06 be e8 d9 35 3e 55 73 76 3e
       0.088794 -0.13163634 0.17758906 0.24067433
0002c0 c1 b4 18 be d5 ec 6a 3e 64 11 ad 3e a8 4a 62 bc
       -0.14912702 0.22941907 0.3380233 -0.013811745
0002d0 58 fa 2a bc 03 08 61 be 2e 78 dd be 62 3a 77 bd
       -0.010435663 -0.21975712 -0.43255752 -0.060358413
0002e0 33 44 60 be 28 3b 0f bf ef 02 4e 3d d8 bc a4 3d
       -0.21901016 -0.5594964 0.050295766 0.080438316
0002f0 fd 10 53 be 63 14 76 bf a8 1a 48 bf a8 2d 56 be
       -0.2061195 -0.9612486 -0.78165674 -0.20915854
000300 6d 87 b6 3e 37 16 e8 3e 96 99 86 be 22 e2 2d 3f
       0.35650197 0.4532945 -0.26289052 0.67923176
000310 46 db 2c 3f 6e b7 21 3f 05 3e 85 bc 06 bf 80 3d
       0.67522085 0.63170516 -0.016264925 0.06286435
000320 13 47 79 3e 14 28 e3 3e 91 86 8f 3e 99 85 39 bf
       0.24343519 0.44366515 0.28032354 -0.7246948
000330 61 ef 02 bd 26 03 81 be d4 4a f7 be 52 1d 4a 3d
       -0.03196657 -0.25197715 -0.48299277 0.04934437
000340 23 d8 51 3e 46 5d 65 3f 87 65 bf 3d 43 eb 38 3e
       0.20492606 0.8959545 0.09345537 0.18058495
000350 02 42 3c be 00 d9 11 bf 3b 8a 19 bf a9 13 e6 bd
       -0.18384555 -0.5697174 -0.5997655 -0.112342186
000360 26 4a 9f 3e 73 5f f1 be d7 58 06 be 15 d2 a6 bd
       0.31111258 -0.47143134 -0.13119827 -0.08145539
000370 ab d1 f1 be 35 d4 0c 3f 1d d9 a6 3e 34 2e e3 bd
       -0.47230276 0.550113 0.3258752 -0.11092797
000380 f6 77 73 bd d7 04 4c 3d 1b 7e cd be 16 11 c0 3e
       -0.059440576 0.049809303 -0.40135273 0.37513036
000390 8e 38 ed be 15 49 cb be 4d 11 80 3f c2 8d de bd
       -0.4633221 -0.39704195 1.000528 -0.10866882
0003a0 c2 8e 62 be d8 60 4f 3e 28 60 9e 3d c7 60 52 be
       -0.2212477 0.20251787 0.07733184 -0.2054473
0003b0 4a cb 80 3e e1 29 e5 be 1d 09 be be 4c 0c 42 3f
       0.25155097 -0.44758514 -0.37116328 0.75800014
0003c0 b2 ee ca bd ad 02 c4 bd 31 eb 21 3e 94 56 c8 bd
       -0.09908809 -0.09570823 0.15812375 -0.097821385
0003d0 4b a6 cb be 09 3c 92 be 37 07 8a 3c 9c e2 9e bd
       -0.3977531 -0.28561428 0.016849143 -0.07758066
0003e0 2e 24 24 bc da 9b 27 3e 07 96 ba 3e 2e aa 21 3e
       -0.010018392 0.16368046 0.36442587 0.15787575
0003f0 62 8e 52 be 3e da c7 be e6 dc bc be ce e8 bd 3c
       -0.20562127 -0.39033693 -0.36887282 0.023182299

model.0.1.weight f4 [16]
000000 32 7c 2c 3f 16 17 a0 3f 52 4d b2 3e 12 18 da 3e
       0.67377007 1.2507045 0.34824616 0.4259649
000010 36 6c 17 3f b8 7d c4 3e 6a 1e e2 3e a2 ac 02 3f
       0.5914949 0.38377166 0.4416383 0.51044667
000020 c4 19 61 3f 7e 3c 17 3f e5 4e 40 3f 14 d3 25 3f
       0.8792994 0.5907668 0.75120384 0.64775205
000030 88 a8 0c 3f 1f 38 0b 3f 4d 0b 06 3f 7a 07 49 3f
       0.5494466 0.5438251 0.52360994 0.78527033

model.0.1.bias f4 [16]
000000 01 04 bc be 3f e1 7f 3f 3f e2 49 be b6 59 12 be
       -0.36721805 0.99953073 -0.19715212 -0.14292035
000010 b7 dc 62 3e ad c2 0d 3e 9c fe c5 bd cb 93 50 3f
       0.22154509 0.13843794 -0.096677035 0.81475514
000020 ce 0c 24 3f 24 f9 f9 3e 6a 17 5d be 36 74 f8 3e
       0.6408204 0.48822892 -0.21590963 0.48526162
000030 8b d2 24 3f 42 7e 09 3c 73 36 24 bc d8 6b cc 3e
       0.64383763 0.008391919 -0.010022747 0.39926028

model.0.1.running_mean f4 [16]
000000 ff 6a 89 3e 59 2d 1f be bc 98 94 be b8 4b 52 be
       0.26839444 -0.15544643 -0.29022777 -0.20536697
000010 e2 68 bf 3d 3e 8f f5 bd f0 77 ac 3c cd ea 31 bd
       0.09346177 -0.11990212 0.021053284 -0.043436814
000020 09 c9 d3 3d 49 4e e2 3c 22 eb 9f 3e 54 72 3a bd
       0.10341079 0.02762522 0.3123408 -0.045519188
000030 09 9f 0c 3e de 0d cc 3e 2b d0 1f bd 96 44 3c bd
       0.13732542 0.3985433 -0.039016884 -0.045963846

model.0.1.running_var f4 [16]
000000 8e 11 2a 40 46 b2 7b 40 07 ee fb 3f ae 0e 88 40
       2.6573215 3.932756 1.9682015 4.251792
000010 95 5f e2 3f d3 99 19 40 71 da 4f 40 35 d1 74 3f
       1.7685419 2.4000137 3.2477076 0.95631725
000020 fc 41 8e 40 ed 97 ee 40 24 f1 21 40 72 fe cc 40
       4.4455547 7.4560456 2.530343 6.40606
000030 cc 39 1c 41 3a b4 93 40 b2 da 9f 3f 7c 74 fa 40
       9.764111 4.6157503 1.2488616 7.8267193

model.1.0.weight f4 [32, 16, 3, 3]
000000 87 9f 75 bd aa 3f c7 bd 84 ad 99 bd 49 a8 1a bd
       -0.05996659 -0.0972894 -0.075037986 -0.037758145
000010 b7 a7 b2 bd 1b 0b e1 bd 20 a6 ae bd e1 7f 93 bd
       -0.08723395 -0.10988446 -0.085277796 -0.07202125
000020 82 9a 1c be db ac 80 bd 2e ad bd bd 7a 54 99 3e
       -0.15293315 -0.062829696 -0.09261547 0.29947263
000030 4d 1a 39 3e 66 2a 99 3c d2 61 22 bb cb c3 1f be
       0.18076439 0.018696975 -0.0024777544 -0.15602033
000040 04 b7 26 3e ed b9 9d bb 9c 15 9f bc 7b 16 a1 bd
       0.16280752 -0.004813424 -0.019419484 -0.07865616
000050 f4 50 54 bd 9e a7 5b be fb 62 ea bc a1 c4 9c bd
       -0.051835015 -0.2145066 -0.02861165 -0.076546915
000060 a7 f6 8d bd 10 20 4c bd 96 53 8c bc 36 e4 91 bd
       -0.06931811 -0.049835265 -0.0171297 -0.07123606
000070 3f 9e bd bd 47 7e 47 3d 9a 48 0c be 71 df 70 bd
       -0.09258699 0.04870441 -0.1369957 -0.05880684
000080 27 6c 12 bd 30 7a 4d bc bb 60 a6 bd da 50 68 be
       -0.035747673 -0.012541339 -0.081239186 -0.22687092
000090 f7 5c 7a bd c6 4e a0 bd 8d 14 3c 3c 71 a1 34 3d
       -0.061123814 -0.07827525 0.011479509 0.044099275
0000a0 3e 1d 0b bd f9 e5 fb 3d 3e 9f 44 bc fb 33 19 3e
       -0.033963434 0.12299723 -0.012000857 0.14961235
0000b0 51 34 9c 3d 90 81 b9 bd 7f 70 4b be b3 2e 97 be
       0.07627166 -0.09057915 -0.19867133 -0.29527816
0000c0 23 ad 33 bd 02 00 47 be aa d8 0a be fc 11 49 3d
       -0.043866288 -0.19433597 -0.13559213 0.049089417
0000d0 22 f0 cb bd ac 68 46 3e d7 ca 1c be c9 42 f8 3c
       -0.09957911 0.19375867 -0.15311752 0.030305283
0000e0 5e 82 ab 3c f1 62 31 be 0d ff 01 be b4 48 39 bd
       0.020936187 -0.173229 -0.1269495 -0.04523535
0000f0 45 6b f3 bb b3 b8 cd bc e9 9e 8b 3d f0 51 86 be
       -0.007428559 -0.025112486 0.06817419 -0.26234388
000100 09 32 3c be 7d 4f 20 bd ca f1 bc 3e ec ed 81 3e
       -0.18378462 -0.039138306 0.3690322 0.25376832
000110 91 66 80 bc 94 f1 f1 3e f8 8a b9 3e 8a 92 b6 3e
       -0.015673907 0.47254622 0.36238837 0.35658675
000120 1a 55 ba 3d 2a a3 5d bd 7b ed 1a bd 2b 88 29 bd
       0.09098263 -0.054110684 -0.037824135 -0.041389626
000130 8d 5a 92 bd 10 d1 6b 3d cc 7d 2d bd 51 a0 19 3e
       -0.071461774 0.057572424 -0.042356297 0.15002562
000140 c0 f1 65 3d 79 4a f2 bd 1d d1 51 bd 83 90 5c bd
       0.056138754 -0.11830611 -0.051224817 -0.053848755
000150 e9 1f 04 be a9 c9 df bd 04 ce b1 bd c4 b7 fb bd
       -0.12902798 -0.109271355 -0.086818725 -0.1229091
000160 01 5f 0a be ec 5b 5c 3b e9 fb fa 3c 7a 3b 28 bd
       -0.13512804 0.0033624126 0.030637698 -0.041072346
000170 7e 05 d1 ba 76 d5 16 3d f3 b7 a2 bd 4d 4b 3f be
       -0.0015947071 0.036824666 -0.07945242 -0.18681069
000180 25 70 d5 3d e3 bd b7 bc 86 a1 b6 3d de b4 00 3e
       0.104217805 -0.022429412 0.08917527 0.12568995
000190 9d d9 16 be 82 1d 10 3e 60 f5 13 be b2 64 f8 3c
       -0.1473145 0.14073756 -0.14449072 0.030321453
0001a0 b8 cb c3 bc 0e 6a 88 bd 6e a7 2c be 4d eb 2d be
       -0.023900852 -0.06660853 -0.16860744 -0.16984291
0001b0 18 8b 2e 3e 48 2c ab 3e 49 18 40 3e df 34 09 3e
       0.17045248 0.3343222 0.18759264 0.13399075
0001c0 d0 2d 4b 3d 84 b8 61 bd 3d bb 01 be fc 7d 88 be
       0.049604237 -0.05510761 -0.12669082 -0.26658618
0001d0 39 7a 53 be 9b 0d 9e bd a0 63 70 be 60 28 bc bc
       -0.20652093 -0.07717439 -0.23475504 -0.022968471
0001e0 2e 1f 16 bd 15 6b cb bd 97 59 dc 3d 46 7b e1 3c
       -0.03665083 -0.09932534 0.107592754 0.027524602
0001f0 dc bd a3 3d 21 30 92 3e 2d a1 35 be 24 9d 80 be
       0.07995197 0.28552344 -0.17737265 -0.2511989
000200 eb 01 b8 bd 30 c7 1d 3d e1 84 66 bd 05 52 63 bd
       -0.08984741 0.038520038 -0.056279067 -0.05549814
000210 86 c9 d7 3e 76 9d 80 3d a1 cf 5a bd bb bf 82 bd
       0.42145938 0.06280033 -0.053420667 -0.06384226
000220 66 66 b4 3d b5 0d 83 bb 08 e6 7e 3b bc 36 f6 bc
       0.088085935 -0.0039994367 0.0038894434 -0.030055396
000230 71 d6 0e bc 57 bc aa 3c e7 cc 26 be a4 16 5a bd
       -0.008718119 0.02084176 -0.16289102 -0.053244248
000240 74 cb 62 bd 44 ac 77 bd 46 34 65 3b fc ad 84 bd
       -0.05536981 -0.06046702 0.0034973784 -0.064784974
000250 6b d8 58 bc 62 a0 0b bc 33 6e be bd c2 2d b1 bc
       -0.013235192 -0.008522125 -0.092983626 -0.021628264
000260 cf d5 dd bc e9 a5 3b 3f 63 d9 65 bf 2e c6 e6 3d
       -0.027079491 0.73300034 -0.8978483 0.112682685
000270 44 3c 2b 3f 68 cd 97 bf 83 35 15 3f c7 6e d5 3d
       0.66888833 -1.185956 0.5828478 0.1042152
000280 2e 43 f7 be 5b 03 56 3e 67 06 03 3e 0e 4b c2 bc
       -0.48293442 0.20899718 0.12795411 -0.02371743
000290 de cb b0 3d 5b 5a f4 bd b8 d8 6b 3c 02 a6 5a bb
       0.086326346 -0.119312964 0.0143949315 -0.0033363109
0002a0 0e f5 43 bd 86 a1 3e 3d 40 08 14 be 88 c3 0a 3e
       -0.047841124 0.04654076 -0.14456272 0.13551152
0002b0 7c da ba 3c e7 86 59 be 64 82 2f 3e 25 0e f4 bd
       0.02280926 -0.21242867 0.17139584 -0.1191676
0002c0 40 58 3c 3e 5f d7 61 bd 55 8d bb 3b 0e 39 0a be
       0.1839304 -0.055137035 0.005723635 -0.13498327
0002d0 bb 6a 40 be af 06 97 3d 0b d2 89 3c f5 7f 88 bb
       -0.18790714 0.07374322 0.01682379 -0.0041656443
0002e0 c9 1e ae 3e 35 d0 4b be 92 4d 16 be 66 21 80 3e
       0.34007862 -0.19903643 -0.14678028 0.2502548
0002f0 0a e1 57 be 3c fe ee ba 5e 74 ba bd 0f e8 7e bc
       -0.2108194 -0.0018233727 -0.091042265 -0.015558257
000300 e9 9a 1e bd 14 5e 81 be c2 f6 d6 3d 52 24 21 3d
       -0.038721953 -0.25267088 0.10496284 0.03934128
000310 7c 37 92 3d 37 28 98 3d 61 39 a2 bb 79 5c 42 bd
       0.07139489 0.074295454 -0.0049506878 -0.04745147
000320 a0 7e 65 bd 71 0c 15 bc 5d 0e 13 be 06 87 bb 3d
       -0.056028962 -0.009097205 -0.14360948 0.09156613
000330 da 88 dc bd 84 a1 76 be cd cb c5 bd 58 04 7e bd
       -0.1076829 -0.24085051 -0.096580125 -0.06201586
000340 d3 1f d6 bb d8 4d eb 3d 52 e0 37 3e 4d 0e 4e 3b
       -0.0065345555 0.11489457 0.17956665 0.003144163
000350 6f 46 9d be 9d 58 e2 3e 08 7b 93 be a5 ae 00 be
       -0.307178 0.44208232 -0.28804803 -0.12566622
000360 ac 4b d8 be 87 44 4d 3e 6a 26 a7 3d 14 e7 2e be
       -0.42245233 0.20045672 0.08161624 -0.17080337
000370 ee d0 b8 3e 62 bb b4 be 0b 78 9d be 43 16 0b 3f
       0.360969 -0.35299212 -0.30755648 0.54330844
000380 31 57 d0 be 35 ef ac 3d 1a fb 23 3e b8 be d4 3d
       -0.40691522 0.084440626 0.16013756 0.10387939
000390 a3 9b b7 bd 52 db a8 bc 2b ee 22 bd 07 c7 76 be
       -0.08965232 -0.020612393 -0.039777916 -0.2409936
0003a0 b4 b1 bd bc 99 1e 89 3e 2e c5 f7 3c c4 38 05 bb
       -0.023156025 0.26781157 0.03024539 -0.0020328024
0003b0 e9 2c 9e bd e8 ac c7 3d 4f f2 18 bd 7f db 12 3d
       -0.0772341 0.09749776 -0.03734046 0.03585386
0003c0 57 b4 05 be 60 5e 71 3d 2f 09 31 be b0 a8 d3 3c
       -0.13057075 0.058927894 -0.1728866 0.025837272
0003d0 10 21 36 3d ea 28 77 3c b9 6d ae be 9f 55 91 3e
       0.044465125 0.015085438 -0.34068087 0.28385636
0003e0 ac fe 52 bc b4 56 ba bc 55 f3 46 3e d7 38 80 be
       -0.012878101 -0.022746421 0.19428761 -0.25043365
0003f0 6f e6 58 3e b8 0b 7a bc f6 69 c6 3c 81 62 8d 3b
       0.21181653 -0.015261583 0.024220448 0.004314721

model.1.1.weight f4 [32]
000000 62 d7 16 3f 1b 0a 98 3f 69 7d 3c 3f 6c 8b 0f 3f
       0.589224 1.1878084 0.7362886 0.56072116
000010 cb 88 56 3f e6 94 39 3f 87 39 60 3f e6 df 2e 3f
       0.8380248 0.72492826 0.8758778 0.6831039
000020 45 3b 56 3f 1a 12 0a 3f 44 fb 51 3f 2d be d1 3e
       0.8368419 0.5393387 0.82024026 0.40965405
000030 48 b1 3c 3f e6 6c 12 3f aa 4d 4a 3f 3c 61 8d 3f
       0.7370801 0.57197416 0.79024756 1.1045299
000040 e9 41 fb 3e 23 be 66 3f 5d 7e 5a 3f 0f 83 09 3f
       0.49073723 0.90133876 0.85349065 0.53715605
000050 79 73 49 3f b5 24 16 3f 1e 1d 89 3f b1 f6 39 3f
       0.7869182 0.5864976 1.0712011 0.72642046
000060 8f 22 66 3f 48 5b 29 3f df 94 01 3f 92 90 39 3f
       0.8989648 0.6615491 0.50617784 0.7248622
000070 83 8e f7 3e b5 a0 05 3f 77 d9 24 3f 8f ae 3f 3f
       0.48350915 0.52198344 0.64394325 0.7487573

model.1.1.bias f4 [32]
000000 76 f6 eb bd 1b 34 16 be 98 3b 12 be 35 7c a1 bd
       -0.11521618 -0.14668314 -0.14280546 -0.07885019
000010 ed 16 13 bd b7 2f 1a be 0a a3 35 be 4d e9 05 bd
       -0.035910536 -0.15057264 -0.17737976 -0.032693196
000020 7c c7 09 be d0 75 e8 bc aa c7 c7 bc 9a 73 eb 3d
       -0.13455003 -0.02837649 -0.0243872 0.114966586
000030 09 75 b7 bd fb 1a 9a bd e7 ac 69 bd 6a 6e 2b bc
       -0.089578696 -0.07524677 -0.05704966 -0.0104633365
000040 74 08 07 3e 27 35 bc bd 7d e2 13 be 2a d4 57 bd
       0.13186818 -0.091898255 -0.14441867 -0.05269257
000050 c4 b3 0d be a2 fc 71 3c d4 27 25 be 0f 97 3c bd
       -0.13838106 0.014769705 -0.16128474 -0.0460425
000060 da 58 c1 be 22 3c b3 bd 85 f7 a9 3d c9 67 31 be
       -0.377631 -0.08751704 0.08299164 -0.17324747
000070 3e 1e 03 be 8e 74 c7 3d eb 30 20 be ba dc 1c be
       -0.12804505 0.09739028 -0.1564366 -0.15318576

model.1.1.running_mean f4 [32]
000000 57 2d 0b 3f a1 77 8e bf 35 8a 33 bf 44 27 61 40
       0.5436606 -1.1130258 -0.7013276 3.5180216
000010 28 4c de bf 42 d7 18 c0 7d 4c 48 bf 65 58 61 bf
       -1.7366991 -2.3881383 -0.7824171 -0.88025504
000020 fa b8 a3 bf 2c bc 68 3f 3b ef 6f 3f 45 e8 d0 3e
       -1.2790825 0.9091213 0.9372441 0.40802208
000030 92 22 91 bf 16 37 76 3f 41 f0 23 bf fa 2b 9e be
       -1.1338675 0.96177804 -0.64038473 -0.30892926
000040 26 b5 16 c0 97 3c 2e bf 5a fa 43 bf 00 16 86 be
       -2.3548064 -0.680612 -0.7655388 -0.2618866
000050 cc 0e e5 be 04 0a 11 be 48 eb 19 c0 56 3e 49 bf
       -0.44737852 -0.14163977 -2.4049854 -0.7861074
000060 69 b0 24 40 71 87 9b 3e 08 63 3f c0 1b fb da bf
       2.5732672 0.3037677 -2.9904194 -1.7107881
000070 e3 ac 82 be ce 99 8c bf c5 4c c0 bf e4 89 78 3e
       -0.25522527 -1.0984437 -1.5023428 0.24271351

model.1.1.running_var f4 [32]
000000 c1 ff 31 3f 04 97 27 41 85 b3 7f 3f 96 f9 78 3f
       0.69530874 10.474369 0.998833 0.9725584
000010 e9 29 81 40 a3 94 25 40 77 7e 99 40 54 fc c7 3f
       4.036366 2.587197 4.7966876 1.562388
000020 c0 73 1a 40 59 7e c0 3f ba ec 31 40 6a cb 86 3f
       2.4133148 1.5038558 2.7800736 1.0530827
000030 00 25 40 40 41 62 62 3f da 5d 62 40 b7 26 0d 41
       3.0022583 0.88431174 3.5369782 8.821952
000040 a9 a3 67 3f 5c 69 b5 40 ba 68 ad 3f 5c 63 0c 40
       0.904841 5.6691113 1.3547585 2.1935644
000050 0e 94 10 40 50 8b 23 41 c5 8f e6 40 27 0f 3d 40
       2.2590365 10.221512 7.20505 2.9540498
000060 8e 4a 0e 40 a0 ef bc 3f 36 4c a2 3f 16 83 b2 3f
       2.2233005 1.4760628 1.2679508 1.3946254
000070 b8 59 2a 3f 73 88 ab 3f 8d 57 b5 3f 10 fc 80 3f
       0.6654315 1.3401016 1.4167343 1.0076923

model.2.0.weight f4 [64, 32, 3, 3]
000000 a7 12 8b 3d e2 c8 db 3d b8 4c 07 bc 9d 67 67 3c
       0.06790667 0.10731675 -0.008258037 0.014123824
000010 e7 1a ff 3d 72 88 53 3d a7 e0 84 bc 32 1d 13 3d
       0.12456303 0.051643796 -0.016220404 0.035916515
000020 c7 d6 84 bd 0d 7a 07 3e b0 4d 10 3e a3 88 55 3e
       -0.06486278 0.13230152 0.14092135 0.20852904
000030 ad 7b 38 3d a4 ed 81 bd bc fe b9 3c b6 04 01 be
       0.04503982 -0.063441545 0.022704475 -0.12599453
000040 e5 e3 d1 bd ab 99 73 3d 85 74 07 3e 79 cc 24 3e
       -0.102485456 0.05947272 0.13228042 0.16093625
000050 31 36 20 3d a1 f6 b4 3d 0a c7 c1 3c 78 c7 e2 bd
       0.03911418 0.08836103 0.02365448 -0.11073202
000060 f6 14 21 bd 23 c0 22 3d 46 b4 9e bc c5 ab be 3c
       -0.03932663 0.039734017 -0.01937307 0.023275265
000070 f7 4f 45 3e d3 ec 06 be b5 0a cd bc ae 47 83 bc
       0.19268785 -0.13176279 -0.02502952 -0.01602539
000080 5c 52 8b bd 83 93 e2 bd ff ad b5 3d 8e ef 0a bd
       -0.06802818 -0.11063292 0.08871078 -0.033919863
000090 39 a9 2d 3c 22 a7 ff 3d 18 a4 90 3d 93 d2 2b be
       0.010599428 0.1248305 0.070625484 -0.16779546
0000a0 b7 19 84 bd be 31 62 3d 0a 17 43 be 76 57 0c be
       -0.06450217 0.05522322 -0.19051757 -0.13705239
0000b0 d7 33 82 bd dd 4c 91 bc 57 8c cd 3c d9 02 6b 3c
       -0.06357544 -0.017736847 0.025091333 0.014343941
0000c0 bc c6 80 3c 47 7f 64 bc cb 46 db bc ae e9 27 3e
       0.015719764 -0.013946361 -0.026767155 0.16397735
0000d0 b3 73 dd 3d c8 d6 f8 3c 82 08 88 bd c2 a1 41 3b
       0.108130835 0.030375853 -0.06642248 0.0029545878
0000e0 21 b4 b3 bc 53 b9 95 bd 84 33 3c bd 75 2d fa bd
       -0.021936478 -0.073107384 -0.045947567 -0.122157015
0000f0 11 b6 fc bd a5 1a 12 be 36 a2 93 bd e4 0f 77 3c
       -0.12339414 -0.14267977 -0.07208674 0.015079472
000100 3e 74 b9 3d e3 f3 44 3c 4a 53 40 3d e7 38 a3 bd
       0.090553746 0.012021038 0.04695443 -0.07969838
000110 36 8a 37 be 87 fd 14 3d 81 ad 6e bd 86 8c d8 bd
       -0.17923817 0.036374595 -0.058270935 -0.10573678
000120 aa ed 41 bc f4 a5 7e bd 8d ff fc 3b 48 f8 32 bd
       -0.011836449 -0.062169984 0.0077208937 -0.04369381
000130 7f 2d 94 bd 63 15 54 3c 92 4e 60 3c 46 84 92 3b
       -0.0723524 0.012944552 0.013690608 0.0044713346
000140 ef f3 8d bc e8 2d 5c bd 04 f6 a1 bc 5e 90 a8 bd
       -0.01732823 -0.053754717 -0.01977063 -0.08230661
000150 b6 55 f5 bc 4b 2c 69 bd 67 a0 8a bd 1c d5 92 3d
       -0.029948097 -0.056927007 -0.067688756 0.07169554
000160 59 68 d3 3d 8c 35 58 3d 17 24 ae 3d ab d9 24 3d
       0.10322637 0.05278544 0.08502977 0.040246647
000170 83 55 88 bd 56 e9 d8 3d dd c3 5f 3d 98 e9 0b be
       -0.06656935 0.1059138 0.05463015 -0.13663328
000180 41 f0 17 3d a2 79 f6 bc b9 d1 0f be 81 6f e6 3a
       0.03709436 -0.030087296 -0.14044847 0.0017580838
000190 cd 12 90 3c 09 a3 ee bc d6 89 da bc d4 80 d6 3c
       0.01758709 -0.029130476 -0.026677053 0.026184477
0001a0 d6 66 7e bd e6 9c 1c 3e e1 36 2f 3e c8 a4 20 3e
       -0.06210979 0.15294227 0.17110778 0.15687859
0001b0 1f de 3b 3e ab 3d 12 3e aa 98 6b bd 23 e8 72 3e
       0.18346451 0.14281337 -0.05751864 0.23721366
0001c0 49 d2 f1 3d 15 de 08 bd aa 82 57 3d de f7 26 3c
       0.11807687 -0.03341492 0.052614845 0.010190932
0001d0 7f e5 f5 bd af 9f d3 3d a4 eb 6d 3a 2b 5f 5d 3d
       -0.120066635 0.103331916 0.00090759457 0.054045837
0001e0 b3 f8 ae 3c a9 cc 38 3d f5 d2 7e 3d 77 d5 ed 3c
       0.021358823 0.045117054 0.062212903 0.029032452
0001f0 ad e3 6f 3d b7 5e bd 3d 4e f5 cd 3d c7 40 c4 3d
       0.058566738 0.09246581 0.10056554 0.09582668
000200 43 aa dd 3d f0 ca e7 bd 83 5f 61 bd 17 c3 38 bd
       0.108234905 -0.11318004 -0.055022728 -0.045107927
000210 82 f7 8e bd 57 86 c5 bd 95 32 04 bd 00 9b 08 3e
       -0.06980802 -0.09644764 -0.0322748 0.13340378
000220 58 c6 61 3e ae 52 1a 3e de fa 07 be 47 de 77 bc
       0.22048318 0.15070602 -0.13279292 -0.015128679
000230 48 da 8d bc 40 8b 1f be 1e 86 24 bd 4d 89 6c 3d
       -0.017315999 -0.15580463 -0.040166967 0.057748128
000240 89 e6 87 bc d1 f4 29 bd 32 b4 e5 bd 5f c5 73 bc
       -0.01658942 -0.04149324 -0.1121601 -0.0148786
000250 63 be 81 bc ee d0 47 bc 7b 22 83 3d 40 00 0c 3d
       -0.015837854 -0.012195809 0.06403061 0.034179926
000260 cd 0a af bb b4 d7 37 3e fb 5f 38 3e b2 97 0e 3e
       -0.0053418637 0.17953378 0.18005364 0.13925055
000270 3b af 89 3d 1e 67 0a 3d 35 78 cc 3d 01 d7 50 bc
       0.06722876 0.033789746 0.09983865 -0.012746573
000280 98 6e 83 bd 68 96 17 bc 79 bd 76 bd ec 63 c7 bc
       -0.064175785 -0.009252168 -0.06023929 -0.024339639
000290 bf 93 a8 bc cc 06 92 bd d5 c4 6c bd ca c0 ac bd
       -0.020578263 -0.07130203 -0.0578049 -0.08435209
0002a0 3e f8 dc bd ff e7 0a be 8f 3a be bd fd 2e fe 3c
       -0.10789536 -0.13565062 -0.09288513 0.031028265
0002b0 6d 64 81 3c e2 e2 2d bc e0 b3 c7 3c 2c 81 b3 bd
       0.015794957 -0.010613175 0.024377763 -0.08764872
0002c0 24 56 26 3b 94 2b cd bd 99 fc 47 be 0c f7 0b be
       0.0025380934 -0.100180775 -0.19529952 -0.1366846
0002d0 3e d3 33 bc f0 44 38 bc 7f 2f be 3c ee 96 14 3d
       -0.010975657 -0.011246905 0.023216007 0.03627675
0002e0 5c 9a 78 3d 66 04 44 bd bf 15 a9 3d 7d 2b a0 bd
       0.060694084 -0.047855757 0.08256101 -0.07820795
0002f0 5c 19 b5 bc 46 9e 75 3d 4e e8 5c 3e d5 87 90 3d
       -0.022106819 0.059965394 0.21572992 0.07057158
000300 cb 97 9c bc 73 57 bf 3d c8 67 1c 3d 45 13 c4 bd
       -0.01911535 0.093428515 0.03818491 -0.09573988
000310 fa cf 2a 3d 25 65 42 3d 2f 1f a3 3d f8 32 eb 3d
       0.04170225 0.04745974 0.07964932 0.11484331
000320 1b aa 1f 3e a8 c8 0f bd 37 a8 8a 3b 3a e6 1e 3e
       0.15592234 -0.03510347 0.0042314786 0.15517512
000330 dc 81 6e bc 2c a2 e0 bd f8 df 2d 3d e2 40 f2 bc
       -0.014557328 -0.10968432 0.04244992 -0.029571954
000340 c2 8e e1 3c 9e ed 10 be 2f a3 83 bd 6f 34 b4 3d
       0.027533893 -0.14153144 -0.06427609 0.087990634
000350 60 61 dc bd 09 da 0a bd d5 a8 50 3c 3c f5 df bd
       -0.1076076 -0.03389934 0.012735565 -0.109354466
000360 a9 e3 c2 bd a4 34 eb bd 2f 3b 2f be 77 42 a2 bd
       -0.09516079 -0.1148465 -0.1711242 -0.079228334
000370 3a a0 c8 bd b7 f9 f4 bd 43 bc db 3b 29 1f 9b bd
       -0.09796186 -0.11961692 0.006705792 -0.07574303
000380 e7 8d 0c be c2 1c 02 bd db 4e 0a be 48 88 84 bd
       -0.13726006 -0.031765707 -0.13506643 -0.06471306
000390 58 ae ba 3c bd 00 11 bc 07 07 11 bd c5 53 56 bd
       0.022788212 -0.008850274 -0.035407092 -0.052325983
0003a0 5f 72 e6 bd c8 0b 1f be 04 c1 27 3e 77 0b 04 3e
       -0.11252283 -0.15531838 0.16382223 0.12894998
0003b0 8e 89 c2 bd 5a 28 ff 3d 4a 3e bb 3d 94 53 4b bd
       -0.09498893 0.12458868 0.0914274 -0.049640253
0003c0 17 4a 18 3c 36 59 89 3c f5 9c c0 bd c4 16 85 3d
       0.009295008 0.016766172 -0.09404937 0.06498483
0003d0 ba 07 67 3d ff a7 e0 3c 2c 71 0f bd 7a b3 05 3d
       0.056403853 0.027423857 -0.03502004 0.032641865
0003e0 33 0f 1b 3c 40 80 a6 bd b6 2b d4 bc 53 f6 db ba
       0.009464073 -0.081299305 -0.02589975 -0.0016781784
0003f0 96 0e e1 b9 d2 72 aa 3c fc 85 0b bd a3 a7 bc bc
       -0.00042926212 0.020806704 -0.034063324 -0.023029154

model.2.1.weight f4 [64]
000000 fc b8 de 3e 68 90 26 3f 84 ea 03 3f e2 8d 1e 3f
       0.43500507 0.65064096 0.5152972 0.61935246
000010 51 46 de 3e 6d 63 ff 3e c6 7c e3 3e 58 6d 21 3f
       0.43413022 0.49880543 0.44431132 0.6305747
000020 ff 07 09 3f 05 d6 07 3f 90 5f 0e 3f ac 6b 1d 3f
       0.53527826 0.5306094 0.55614567 0.6149242
000030 43 ff 10 3f 87 fc f0 3e fd 71 03 3f 95 9d d1 3e
       0.566395 0.47067663 0.5134581 0.40940538
000040 1a 0e 02 3f 1f 07 1c 3f 57 5f 1e 3f a2 59 0b 3f
       0.5080277 0.60948366 0.6186423 0.54433644
000050 19 c7 03 3f 01 6b 05 3f bf e6 01 3f 1b a3 03 3f
       0.51475674 0.521164 0.50742716 0.51420754
000060 7f 91 14 3f 69 9b 15 3f f1 1b 1f 3f b7 ce 39 3f
       0.5803451 0.5844026 0.6215201 0.72581047
000070 4e 24 06 3f 1c 97 17 3f 14 e2 fa 3e fa 2d f6 3e
       0.52399147 0.5921495 0.4900061 0.48081952
000080 0d 5a ec 3e 8e 6b 19 3f 59 71 c1 3e 87 42 02 3f
       0.46162453 0.5992974 0.3778179 0.5088276
000090 ba ef 0f 3f 2c 13 04 3f 41 29 ef 3e d8 cb 0a 3f
       0.5622517 0.51591754 0.46711162 0.5421729
0000a0 38 eb 86 3e 68 41 04 3f de c0 d4 3e f4 19 25 3f
       0.26351333 0.516623 0.41553396 0.64492726
0000b0 91 d1 1a 3f d0 9e 00 3f ac e9 eb 3e d1 6c 08 3f
       0.6047602 0.5024233 0.46076715 0.5329104
0000c0 34 85 fc 3e 31 21 0a 3f 09 bb 15 3f d8 67 24 3f
       0.49320376 0.53956896 0.5848852 0.64220953
0000d0 fc c9 04 3f 77 a2 16 3f db 8b 02 3f 9b 19 e0 3e
       0.51870704 0.5884165 0.5099465 0.43769535
0000e0 08 25 f7 3e c6 71 0c 3f 56 cd 15 3f f5 ef 25 3f
       0.4827044 0.54861104 0.5851644 0.6481927
0000f0 24 cf 21 3f df 66 1e 3f 1f f1 e2 3e 3a 67 2f 3f
       0.63206697 0.6187572 0.44324586 0.68516886

model.2.1.bias f4 [64]
000000 d9 4b c6 bd 63 ce 80 be 00 7e 2a be 05 7b 97 be
       -0.096824355 -0.2515746 -0.16649628 -0.29586044
000010 b8 12 cd bd 24 dd c7 bd 46 a3 d2 bd 11 43 90 be
       -0.10013336 -0.09758976 -0.10285048 -0.28176168
000020 77 da e4 bd bc cc 16 be 2a 35 fd bd ec 79 1d be
       -0.11174481 -0.14726537 -0.12363656 -0.15378541
000030 00 8a 6e be 94 9b db 3d 39 ba 61 bd f0 76 9a 3b
       -0.2329483 0.107230335 -0.055109236 0.0047138855
000040 d1 6c 40 be ca 20 a4 be 22 0d 2d be 13 db 71 be
       -0.1879151 -0.32056266 -0.16899541 -0.23618726
000050 f5 4f 1f be 40 17 06 bc bd 17 06 be 56 d3 66 be
       -0.15557845 -0.008184254 -0.13094993 -0.22541556
000060 b6 25 b9 bd a2 fa 66 be ca 9d 85 be 32 1d 35 be
       -0.09040396 -0.22556546 -0.26096946 -0.17686918
000070 fb d2 3d be df 8e 91 be 8b db a8 3c 5b 3c 03 be
       -0.18537514 -0.28429314 0.020612499 -0.12815993
000080 87 f6 04 be f2 76 5a be eb af 0b be 2f 98 dd bd
       -0.12984668 -0.21334437 -0.13641326 -0.10820042
000090 41 df 96 bd 1a 6d 5f be 2a 32 e9 bd ee 53 00 be
       -0.07366801 -0.21818963 -0.11386521 -0.12532017
0000a0 35 91 bb 3d 09 5a 20 be 74 34 d7 bd 42 5d 63 be
       0.091585554 -0.15659346 -0.105080515 -0.22203544
0000b0 e1 60 9e be 81 ab 28 be c9 4e 2d be 61 3c 2d be
       -0.30933288 -0.16471674 -0.16924585 -0.16917564
0000c0 3d 2b 20 be 8b f0 11 be 96 8c 46 be 5a ae 94 3d
       -0.15641494 -0.14251916 -0.19389567 0.072598174
0000d0 84 34 19 3d 6e 59 8b be 63 db 87 be 6a c4 0f be
       0.0374036 -0.27216667 -0.26534566 -0.1403977
0000e0 41 72 35 be bd e8 5b be 16 a1 82 be c2 40 59 be
       -0.17719366 -0.21475501 -0.25513524 -0.2121611
0000f0 a5 a4 86 be 88 33 8b be fc d1 e8 bd f1 28 3b be
       -0.2629749 -0.27187753 -0.11368176 -0.18277337

model.2.1.running_mean f4 [64]
000000 f1 9b 21 be 4b 64 7d bf be cf 08 bf a3 21 7a bf
       -0.15782143 -0.9898116 -0.5344199 -0.97707576
000010 a1 0d 4e bf de c1 48 3d 3f cc 7d 3d ff bd 76 bf
       -0.80489546 0.04901301 0.061962362 -0.9638366
000020 f3 99 b4 be 86 7e 6a bf bd 02 6b bf 49 58 46 bf
       -0.35273704 -0.9159931 -0.91801053 -0.7747846
000030 01 33 84 be 02 16 7a bf 90 24 31 3e 0b b5 e7 3d
       -0.25820163 -0.9768983 0.17299104 0.11313828
000040 12 bd 53 bf 5e ba 91 bf 5c f1 26 3c 80 bb 80 bf
       -0.82710373 -1.1385 0.0101893805 -1.005722
000050 5e 77 41 bf 52 e2 2a bf ef 34 1a bf 46 d8 29 bf
       -0.75572765 -0.6675159 -0.6023702 -0.6634563
000060 f5 14 38 bf 0c 26 06 bf 6e 11 83 bf e1 33 72 bf
       -0.7190698 -0.52401805 -1.0239694 -0.9461041
000070 8b 39 67 bf 21 b1 64 bf 22 2e 1a bf c0 1a 39 bf
       -0.9032218 -0.8933278 -0.60226643 -0.7230644
000080 4b 33 4a bf 7a 21 4a bf fe a0 9f bd f9 bd 8a bf
       -0.78984517 -0.7895733 -0.07794379 -1.0839225
000090 41 47 56 bf 54 25 8f 3e de 25 ff 3e 14 92 59 bf
       -0.83702475 0.27958167 0.49833578 -0.8498852
0000a0 38 d1 cc be 13 5d 75 bf c3 01 dd be 01 cd ad bf
       -0.4000337 -0.95845145 -0.43165407 -1.3578187
0000b0 0f 72 66 bf d3 ad 91 be fd 7f 8e be 44 ca 56 bf
       -0.9001779 -0.2845293 -0.27832022 -0.8390238
0000c0 8f 92 62 bf c3 c0 9e be 1c b6 bf be 2b 18 d5 be
       -0.8850488 -0.3100644 -0.37443626 -0.4162
0000d0 6f 86 9e bf db d0 e8 be 93 70 2c bf 79 1a 83 3d
       -1.2384776 -0.45471844 -0.67359275 0.06401534
0000e0 f4 aa 52 be 2d 33 9d be 5a 2b f1 be 5c 2c 79 bf
       -0.20573026 -0.30703107 -0.47103387 -0.9733331
0000f0 6f 47 d3 be 48 bb 35 bf f2 6b 6d be 4c e7 b4 be
       -0.41265437 -0.70988894 -0.23185709 -0.35332716

model.2.1.running_var f4 [64]
000000 e2 2b 14 3f 10 68 bd 3f 98 30 32 3f c2 7d 93 3f
       0.5787946 1.4797382 0.696054 1.1522753
000010 dd ff c2 3e d4 81 63 3f aa d1 35 3f 5f 52 89 3f
       0.38085833 0.88869977 0.71023047 1.0728263
000020 42 69 52 3f 64 8c 74 3f b5 b6 70 3f f2 af c0 3f
       0.8219186 0.9552672 0.9402879 1.5053694
000030 a3 02 33 3f 76 95 57 3f 10 37 1c 3f 0c 86 11 3f
       0.699259 0.84212434 0.6102152 0.56845164
000040 2e 9f 47 3f 36 6b b5 3f 05 a1 94 3f dd 5e 80 3f
       0.77977264 1.4173343 1.1611639 1.002895
000050 d9 dc e0 3e a0 08 86 3f e2 5a a7 3f 36 8d 6c 3f
       0.43918493 1.0471382 1.307461 0.9240297
000060 d8 f2 33 3f ff f6 31 3f 48 fd aa 3f 70 c1 aa 3f
       0.70292425 0.6951751 1.3358545 1.3340282
000070 cb f8 c1 3e 20 ff 4e 3f 4e c1 a6 3f 50 32 7b 3f
       0.37885126 0.8085804 1.3027742 0.98123646
000080 db 1a e5 3e a9 27 44 3f b5 c8 2f 3f c6 01 4b 3f
       0.44747052 0.76623017 0.6866563 0.7929958
000090 9f 0d 43 3f 35 d5 30 3f d9 d9 64 3f ad 5f cc 3f
       0.7619266 0.6907533 0.8939491 1.5966698
0000a0 6c c4 50 3f e2 71 38 3f 8c 46 fe 3e 3b 2b 92 3f
       0.81549716 0.7204877 0.49663198 1.1419443
0000b0 e9 a0 3c 3f f0 2e 0e 3f 46 e6 42 3f b6 e5 96 3f
       0.7368303 0.5554037 0.7613262 1.1788852
0000c0 5d c6 a4 3f 93 47 09 3f 21 40 8b 3f 82 3c b2 3f
       1.2873036 0.5362484 1.0878946 1.3924716
0000d0 05 e0 59 3f cb 99 03 3f d4 f3 06 3f f7 15 25 3f
       0.8510745 0.51406544 0.527158 0.6448664
0000e0 72 bb 8a 3f c2 1e 25 3f 42 21 07 3f 48 bf 56 3f
       1.0838454 0.6450006 0.5278512 0.8388562
0000f0 cc 61 c5 3f cb 7c 04 3f b7 2a e3 3e f2 3c 34 3f
       1.542047 0.5175292 0.44368526 0.70405495

model.3.0.weight f4 [64, 64, 3, 3]
000000 6b 7a f7 bc 48 e0 48 3c 36 9d 19 3e f1 bf 9d bd
       -0.03020974 0.012260504 0.15001377 -0.077026255
000010 d0 6c 42 bc c8 49 11 3d 1e b0 6f bd 22 fc a4 3c
       -0.011866763 0.035470754 -0.058517568 0.020139758
000020 ab c6 74 3d de e9 94 bc c4 71 7d bd 93 72 cd 3c
       0.059759777 -0.018177923 -0.061876073 0.025079047
000030 41 01 85 3d 39 f8 e0 3c ae 39 18 3d df ec 53 3c
       0.0649438 0.027462112 0.037164383 0.012934892
000040 9a bc 04 bd 0f 16 81 3d 89 d7 e4 bd 64 6f b4 bd
       -0.032406427 0.063030355 -0.111739226 -0.088103086
000050 5f 19 78 bd f5 ae b2 3c d3 1b 0e 3d f8 b7 66 bd
       -0.06057107 0.021811942 0.034694504 -0.05632779
000060 54 b3 34 3d 76 7f 07 3d c2 35 07 be 94 0b 20 bd
       0.044116333 0.03308054 -0.132041 -0.03907354
000070 0a df 72 bc 13 81 89 3d cb c8 8b 3d 7d 73 c6 3d
       -0.0148236845 0.06714072 0.068254076 0.096899964
000080 c9 37 0c 3e c1 b6 cd 3d af 18 08 3e 9d 24 15 3e
       0.13693155 0.10044623 0.13290666 0.14564748
000090 73 3a a1 bd f6 e3 a1 bd 1f e9 34 bd 6a ba 6b bd
       -0.078724764 -0.07904808 -0.044167634 -0.057550825
0000a0 cb a1 31 3d 69 24 59 3c 1c 47 8f bd 9e dc 03 3d
       0.04336719 0.01325331 -0.06995985 0.03219282
0000b0 0c 36 aa 3c 44 85 9a bd fe 77 7f bc 98 9c 6f 3d
       0.020777725 -0.0754495 -0.015592573 0.05849895
0000c0 49 36 10 3d e2 79 bd 3c 2a 07 03 3d 2e c7 ed 3c
       0.03520802 0.023129407 0.031989254 0.02902564
0000d0 94 d0 7e bd b5 6c 80 bd eb e9 04 be ea 83 de bc
       -0.062210634 -0.06270734 -0.12979858 -0.02716251
0000e0 f4 59 eb 3b 6e f1 9f bb 2b 98 9a 3d cb cd 50 bd
       0.007182354 -0.0048810756 0.07548555 -0.05097751
0000f0 bf d1 1a bc 32 c7 14 3d b1 af 22 bc e7 5f c2 bc
       -0.009449421 0.03632278 -0.009929583 -0.02372737
000100 96 61 78 bc 72 85 46 3b 71 f6 ea bc c6 25 95 3d
       -0.015159985 0.0030291942 -0.028681966 0.07282595
000110 6b a5 ec 3b 43 bf 06 bd a6 f6 24 3d 9c e2 67 3d
       0.007221868 -0.032897245 0.040274285 0.056612596
000120 ac 9c e6 bc 07 11 89 3c c6 5c 1d 3d 72 1f 68 bd
       -0.028150879 0.016731752 0.038418554 -0.056670614
000130 00 22 b4 bd 82 01 e9 bc e2 fa d2 bc 48 9d e6 3c
       -0.087955475 -0.028443102 -0.025754396 0.02815117
000140 ba 5e 63 3d 90 ca 78 bb 49 77 e8 3d b5 22 51 3d
       0.05551026 -0.0037962534 0.11350877 0.05105849
000150 45 58 f4 3c 5d f9 7d 3d 9f 4a fd 3d 8e 93 e9 bd
       0.029827246 0.06200539 0.123677485 -0.11405097
000160 95 cb b4 3d ab c8 0c 3e e6 66 17 bd 8b cc 60 3d
       0.08827893 0.13748424 -0.036963366 0.054882567
000170 b1 d4 7e 3d eb 9d 31 bc f8 08 f2 3d 7a b7 c5 3d
       0.062214557 -0.010840873 0.11818117 0.09654136
000180 f6 87 10 bd b8 7e 08 3e 5c 94 15 3e 71 38 49 3c
       -0.035285912 0.1332959 0.14607376 0.012281523
000190 e8 1f aa 3d 59 e8 62 3d 94 1f 9e 3d eb f1 f3 3d
       0.08306867 0.055397365 0.07720867 0.119113766
0001a0 0e 75 bc 3d 18 d4 e3 3b 43 a6 0c 3e da 38 db 3d
       0.09202014 0.006952774 0.13735299 0.10704203
0001b0 c3 2f 81 bd ac a6 15 bd e2 ad cc bc 64 3c 4f bb
       -0.06307938 -0.036535904 -0.024985258 -0.003162169
0001c0 6e 7f 63 3c ca 35 b8 bb f5 5e 85 bd 2e a5 0d 3d
       0.013885362 -0.0056216465 -0.06512252 0.034581356
0001d0 58 a4 b1 3b 97 c2 be bd 54 cb 52 bd ff 0a 90 bd
       0.0054212026 -0.09314459 -0.05146344 -0.07033347
0001e0 1f a6 92 3b bb 4e bc bd 87 ed 86 bd 42 7f 2e 3d
       0.0044753696 -0.09194704 -0.065882735 0.04260183
0001f0 c4 19 a6 3c a1 4f 40 3c e9 8f 36 3a d9 1f e8 3b
       0.020275958 0.011737735 0.00069641933 0.0070838747
000200 99 dc 92 bd e5 ed a8 3d 98 ae dc 3c 62 11 76 bc
       -0.07170982 0.082485 0.026938722 -0.015018793
000210 2f 07 35 3e 70 8a f3 3c 25 4f ec bc 5b 04 30 bd
       0.17678522 0.029729098 -0.028846333 -0.042972904
000220 b1 72 4b bc af 96 97 bc 25 83 0c 3c 83 10 11 3d
       -0.012417481 -0.018504469 0.008576189 0.035416137
000230 bf 3e 25 3d 2b 8e f7 3c af 9f 21 3c 84 db 20 bd
       0.040343042 0.030219158 0.009864732 -0.039271846
000240 0b 83 3b bc 2a b2 b0 3c 4d ff 0f bc a9 c3 51 3c
       -0.011444817 0.02156933 -0.008788896 0.012802997
000250 22 37 3f 3b 5e 7d a1 ba 9c 3e df 3c eb 7c 38 3d
       0.0029177149 -0.0012320688 0.027251534 0.045041006
000260 70 c4 52 3c 84 2b 63 bd 95 3b 7f 3c 0b 1a da bc
       0.012864217 -0.05546142 0.01557817 -0.026623746
000270 43 c8 81 bd 0c c7 a4 3c 25 07 79 3d 55 34 c7 bd
       -0.06337025 0.020114444 0.06079783 -0.097267784
000280 9d a1 af 3d 25 2b 91 3d df 8b 9f 3c 95 f5 18 3d
       0.08575747 0.07088307 0.019475875 0.03734358
000290 85 48 d6 bc 21 76 9d bc 60 cb 96 3c cb ac b4 bc
       -0.026157627 -0.019221367 0.018407524 -0.02205505
0002a0 1b 0b 82 3d a5 f9 a3 3c c4 52 94 bd 77 f2 23 3d
       0.063497745 0.0200165 -0.07242349 0.040026154
0002b0 61 01 8d 3d 6c 88 9b 3d d6 33 f1 bc 21 07 71 3d
       0.06885029 0.0759438 -0.029443663 0.05884469
0002c0 7a 1b 55 3d 54 ea 71 bd d3 4d 35 bd a9 22 ce bc
       0.052028157 -0.059061363 -0.044263672 -0.025163012
0002d0 58 c6 80 bd 2b c7 97 bd 70 e0 e1 3a 9e 87 8b bd
       -0.06287831 -0.07411035 0.0017233025 -0.06812976
0002e0 83 2d c6 bd ff 1f e4 bb 86 ec 8f bd a1 93 2c bd
       -0.096766494 -0.006961822 -0.07027535 -0.042132977
0002f0 1a 58 08 bd 3f 76 e4 bc 5b c0 76 3c ed 0e 24 bd
       -0.033287145 -0.027888415 0.01506051 -0.040053297
000300 65 51 34 bd f6 03 94 3c d9 ac bd bb c0 73 cc bd
       -0.044022936 0.018068295 -0.0057884273 -0.09983015
000310 a5 76 f0 bc 48 2c 89 bd a6 24 1c bd 52 ea aa bd
       -0.02935345 -0.06697899 -0.03812089 -0.08345474
000320 1a a4 8f bd 50 91 be bd 66 f5 40 bd 1e 89 f0 3a
       -0.07013722 -0.0930506 -0.04710903 0.0018351411
000330 95 9f 39 bd 50 ce 16 be e0 4f 9b 3c 14 35 23 bd
       -0.045318205 -0.1472714 0.018958986 -0.03984554
000340 3c f9 8d 3b 65 97 02 bc c3 00 1f bd 06 a0 4f bc
       0.0043326896 -0.007970666 -0.038819086 -0.01267243
000350 2b db 42 3c 97 79 56 bc d1 49 c7 bc 0f 1c 6b bd
       0.011893074 -0.013090513 -0.02432719 -0.057399806
000360 b2 70 8d bd 36 c9 81 bd 2d 59 86 bd 5c 64 55 bd
       -0.069062606 -0.06337206 -0.06559978 -0.052097663
000370 37 69 a0 bd 21 b8 ac bd 15 fb 26 bd fe b6 d1 bc
       -0.07832568 -0.08433557 -0.040766794 -0.025599953
000380 1c 20 a3 bd 4e 50 bd 3d c4 c3 9b 3d 2f 87 21 3d
       -0.07965109 0.092438325 0.07605699 0.03943556
000390 00 2f 95 3c 92 39 57 3c 5e 4b 32 3d 2e 1e 11 3e
       0.018210888 0.013136284 0.043528907 0.14171669
0003a0 f6 30 9e 3d b3 f8 82 bc cb 09 5a bd 9b cf af bc
       0.07724182 -0.01598773 -0.053231996 -0.021461299
0003b0 4a 7a 00 bd c4 c7 fe bc 51 f4 cc 3c f0 ce 25 3a
       -0.031366624 -0.031101115 0.025018843 0.00063250866
0003c0 3e 3f bc bd 89 13 21 3d ab b2 01 bd b0 91 ab bc
       -0.0919175 0.03932527 -0.03166453 -0.020943493
0003d0 4f 80 25 3d 62 1d a1 3d f2 1d f7 bd b1 b2 5b 3d
       0.040405568 0.078669325 -0.120662585 0.05363721
0003e0 bb 38 b5 3c d6 f5 d0 bd 7d 3a ac 3c c1 83 80 3d
       0.022121778 -0.102031395 0.021023983 0.0627513
0003f0 5d 7d bb bc 55 46 6d bc 8e d7 52 bc a5 c6 91 bd
       -0.022886926 -0.0144821005 -0.012868775 -0.071179666

model.3.1.weight f4 [64]
000000 fb d7 23 3f 22 9b d2 3e 65 91 03 3f 26 7e ff 3e
       0.64001435 0.41133982 0.5139373 0.4990093
000010 e5 e5 f2 3e 0d 4a 04 3f e0 16 00 3f c0 7d 0d 3f
       0.4744102 0.5167549 0.50034904 0.55270004
000020 02 4c 05 3f 3c 23 e1 3e 19 8c 0e 3f f0 f0 1a 3f
       0.52069104 0.43972194 0.5568252 0.6052389
000030 49 74 10 3f 7e 9c ee 3e 48 bb d2 3e ca 89 00 3f
       0.5642744 0.4660377 0.4115851 0.5021025
000040 cc 72 e7 3e 8e 6f 21 3f 7a 51 2a 3f 28 f1 1d 3f
       0.4520477 0.63060844 0.66530573 0.616961
000050 a0 4d 21 3f 47 c3 02 3f 5e 2f f9 3e 34 48 05 3f
       0.6300907 0.5107922 0.4866895 0.520633
000060 59 f0 f5 3e 01 e3 0e 3f b9 27 c6 3e e2 c6 14 3f
       0.48034933 0.5581513 0.3870218 0.5811597
000070 13 e7 08 3f d3 f0 f3 3e 0b d6 f2 3e 18 5f 10 3f
       0.5347759 0.47644672 0.47428927 0.563951
000080 e3 ac 17 3f 14 47 08 3f 6a 86 fb 3e d2 a3 04 3f
       0.5924818 0.53233457 0.49125987 0.5181247
000090 d6 39 ed 3e e7 35 32 3f 35 03 09 3f 1b a1 f9 3e
       0.46333188 0.696135 0.5352052 0.48755726
0000a0 64 65 ea 3e 3f 62 17 3f fd 28 eb 3e 5c ba 53 3f
       0.4578048 0.59134287 0.4592971 0.82706237
0000b0 2a 39 02 3f 4e f9 09 3f 6a db e9 3e f4 7a c4 3e
       0.50868475 0.53896034 0.45675212 0.38375056
0000c0 bc 48 c3 3e a1 dd 00 3f e8 27 06 3f ac 65 06 3f
       0.3814143 0.5033818 0.5240464 0.5249889
0000d0 7b f5 2f 3f 94 f5 fe 3e f7 2c f3 3e ba b1 d7 3e
       0.6873395 0.49796736 0.47495243 0.42127782
0000e0 26 e5 14 3f 46 45 14 3f 6e 7a f8 3e 87 f5 e1 3e
       0.5816215 0.579182 0.48530906 0.44132635
0000f0 af c8 ff 3e 27 88 b6 3e 0a f7 cc 3e 2e ea 27 3f
       0.49957797 0.3565075 0.40032226 0.65591705

model.3.1.bias f4 [64]
000000 3b c5 90 be 0a 43 9d bd 4d 44 6e be 41 de 5e be
       -0.28275475 -0.07678802 -0.23268242 -0.2176447
000010 e7 b1 b7 bd 30 2e 4c be 90 74 91 be 3a 78 60 be
       -0.08969479 -0.19939494 -0.28409243 -0.21920863
000020 d6 e3 ae 3c ea c1 46 be 46 f8 b9 be ce d5 90 be
       0.021348875 -0.1940991 -0.3632223 -0.2828812
000030 09 b5 9a be 26 f7 85 be 78 cf bc bd 70 29 9a 3d
       -0.30216244 -0.26165122 -0.09219259 0.07527435
000040 2c f2 25 be ee 95 75 be b9 35 67 bd 62 65 e7 be
       -0.16205662 -0.23982975 -0.05644772 -0.45194536
000050 79 cb 68 be 72 d9 6c be 4d cc 16 be 09 62 08 be
       -0.22733869 -0.23129824 -0.14726372 -0.13318647
000060 9f be 78 bd 73 70 85 be fd 11 03 be c4 ca 03 bb
       -0.060728665 -0.26062354 -0.1279983 -0.0020109871
000070 b0 7e 8e be 99 18 70 bd cc b7 f6 3b 85 35 4e be
       -0.2783103 -0.05861721 0.0075292345 -0.20137604
000080 4e e6 c5 be 99 98 70 bd e5 a8 67 be 6d 5f 00 be
       -0.3865227 -0.05873928 -0.22623022 -0.12536402
000090 4f 87 0b be ab 37 43 be 2a 58 a5 be 07 fa c3 bd
       -0.13625835 -0.19064204 -0.32293826 -0.09569173
0000a0 7b 3a ea bd ee 98 94 be 8f 3c ea bd 7d c7 86 be
       -0.114369355 -0.29022926 -0.11437332 -0.26324072
0000b0 98 d0 60 bd aa 07 3f be fc 7e 2d bd ef c2 8b bd
       -0.05488643 -0.18655267 -0.04235743 -0.0682429
0000c0 ba 51 ba bd 52 31 23 be 76 e5 8d be 4f 35 93 be
       -0.09097619 -0.15936783 -0.27714127 -0.2875161
0000d0 6e 01 81 be 83 8d 74 be ea c4 38 be 16 4b 0f be
       -0.25196403 -0.23882107 -0.18043867 -0.13993487
0000e0 3b 15 b4 3c 58 8e 14 be fa 88 02 bd 9d 20 eb bd
       0.02198278 -0.14507425 -0.031868912 -0.1148083
0000f0 ae 90 6d be 39 11 86 bc b9 27 2d be 86 32 0a bf
       -0.23199722 -0.016365634 -0.16909684 -0.5398334

model.3.1.running_mean f4 [64]
000000 46 c4 c6 3e 62 28 80 bf 3a 54 5b bf f1 bb 95 3e
       0.3882162 -1.0012324 -0.85675395 0.2924495
000010 84 66 d5 be 86 13 a6 3f 68 79 4c be f7 d0 b5 3e
       -0.41679776 1.2974708 -0.19968188 0.3551099
000020 b0 10 63 bf 12 ca 8c be d8 80 c3 be 20 7f 48 bf
       -0.8869734 -0.27497917 -0.38184237 -0.7831898
000030 57 5b 4d 3c c5 4e 20 bf 35 e2 d7 be 45 e4 2c bf
       0.012533984 -0.6262019 -0.4216477 -0.6753581
000040 c6 d3 9b bf 24 31 84 be ac 50 a9 bf f2 17 5a bf
       -1.2174003 -0.2581874 -1.3227744 -0.8519279
000050 f7 9f 94 bf 3b 02 50 3e 14 a7 cc 3d 67 91 93 be
       -1.1611317 0.20313351 0.09992805 -0.2882187
000060 a1 76 b2 bf 78 0f 39 bf 48 69 26 bf 71 5c 4e be
       -1.3942453 -0.7228923 -0.65004396 -0.20152451
000070 a5 42 e2 be 70 82 17 bf 3c e3 43 bf 88 30 14 bf
       -0.4419147 -0.59183407 -0.7651861 -0.5788655
000080 a4 4f 0e bf d9 e1 b2 be 8e 86 a7 3f 73 93 cb be
       -0.5559027 -0.34937933 1.3087938 -0.39760932
000090 ed 07 53 bf 6a 20 ed bc 87 0d 18 bf c8 13 b0 be
       -0.8243397 -0.02894612 -0.5939564 -0.34390092
0000a0 8f 1d 18 3e 48 99 33 3e 36 ef d6 bf 57 04 8b be
       0.14855026 0.17538941 -1.6791751 -0.2715175
0000b0 df 43 1e bf bd e0 78 bf 2a 7b b6 3e c9 2a 94 be
       -0.61822313 -0.97217923 0.35640842 -0.28938892
0000c0 50 88 3f bf cc a3 80 be a9 c5 5b bf 1e b4 cf bd
       -0.7481737 -0.25124967 -0.8584848 -0.101417765
0000d0 8f 4b 32 bd ac a1 c8 be 08 f8 b4 bf 75 2c 3c bf
       -0.04352909 -0.39185846 -1.4138193 -0.73505336
0000e0 44 1b 31 3d d3 eb b3 be e4 6d f9 be 92 f4 74 bf
       0.043238893 -0.35140857 -0.48716652 -0.95685685
0000f0 46 63 00 bf 19 60 96 3d 4e d1 6c 3e 70 dc da be
       -0.5015148 0.07342548 0.23126718 -0.42746305

model.3.1.running_var f4 [64]
000000 3e 77 03 3f 29 89 04 3f 92 da 0a 3f 3e af 8a 3e
       0.51353824 0.5177179 0.5423976 0.27086824
000010 11 0d 4a 3f 74 6d 91 3e b9 d5 c5 3e 6f ba ba 3e
       0.7892619 0.2840382 0.3863962 0.36470363
000020 44 12 bf 3e ac 4e ff 3e 10 35 ce 3e 07 a7 08 3f
       0.37318623 0.4986471 0.40274858 0.53379864
000030 ef f7 6a 3e 17 c5 c6 3e 4c 70 ab 3e f9 26 f5 3e
       0.22946142 0.38822243 0.33484113 0.47881296
000040 3f ae f4 3e a8 69 c5 3e 4f bb 69 3f 61 e2 22 3f
       0.4778919 0.38557172 0.91301435 0.63626677
000050 a9 47 02 3f 39 40 b7 3e 30 5c 02 3f 2b af f7 3e
       0.50890595 0.35791185 0.50921917 0.4837583
000060 7f 9f 1f 3f d6 b5 be 3e ab 3e 9a 3e 32 0f 9a 3e
       0.62352747 0.37248105 0.30125937 0.30089718
000070 d2 3b c1 3e ac 69 c4 3e dc d1 9e 3e 57 91 24 3f
       0.37740952 0.3836187 0.31019485 0.6428427
000080 80 0f 2c 3f ea 87 95 3e 27 ed f4 3e 73 b2 ff 3e
       0.6721115 0.29205257 0.47837183 0.49940833
000090 36 b4 ca 3e e3 13 ec 3e fc 0d fe 3e dd d3 95 3e
       0.39590615 0.46108922 0.49620044 0.292632
0000a0 1b 16 73 3e d3 18 a0 3e ea a4 27 3f 0f 05 95 3f
       0.23738901 0.3126894 0.65486014 1.1642169
0000b0 59 0c b1 3e 46 4f dd 3e 8e 23 bc 3e 77 50 69 3e
       0.34579733 0.43224543 0.36745876 0.22784601
0000c0 19 83 a8 3e a6 31 8f 3e 28 3b 9e 3e 21 88 29 3f
       0.3291252 0.27967566 0.30904508 0.6622334
0000d0 64 55 d8 3e 89 ae 8c 3e db f4 2a 3f 34 89 18 3f
       0.42252648 0.2747691 0.6677987 0.59584355
0000e0 82 8b e2 3e a6 58 10 3f 18 8e fe 3e ca 21 79 3f
       0.4424706 0.56385267 0.49717784 0.97317183
0000f0 d9 0b e0 3e 6b f7 c1 3e da 3d 54 3e b5 f7 02 3f
       0.4375904 0.37884077 0.2072672 0.5115922
